1/第17课 使用深度学习模型CNN生成结构性因子/cnn_for_fct_best_0506.pth (torch, 9431 bytes, 5 tensors)

weight f4 [20, 41, 1]
0.022305215 0.09740637 0.046824254 -0.0418611 0.04552162 -0.050703425 0.019597989 -0.10237564
0.10698704 -0.03766577 -0.110725716 -0.105074145 0.12146745 -0.14096268 -0.0018685181 -0.09950175
0.06121852 -0.17329614 0.13668856 -0.10761984 0.09313512 0.013318048 -0.019656079 0.007381084
-0.10378424 -0.14029567 0.120606855 -0.06606979 0.06386423 0.069059834 -0.05445853 -0.0025356344
-0.04338162 -0.1295306 0.13106407 -0.059964117 0.08643835 -0.013480087 -0.03443161 -0.013259236
0.116639756 0.0753113 -0.09675585 -0.013899301 0.10300971 0.14014857 -0.050027 0.10306774
0.07063227 0.09487933 0.113619074 0.052435447 -0.020364882 0.11922306 0.072772145 0.04944718
-0.021356162 -0.007326897 -0.13745688 -0.071307555 0.00043938126 -0.11625522 0.060749926 0.0035551128
0.0047779307 -0.036921877 -0.11299991 -0.052028056 0.043023355 -0.09355232 -0.029378919 -0.14846356
0.07705264 0.04974373 -0.06600542 -0.026184885 -0.0012492232 -0.08388857 -0.10025002 -0.082712434
0.10822794 -0.030532204 -0.036112275 0.105869696 -0.08047472 0.107818685 0.018016996 0.0958266
0.14748153 -0.12412096 0.10276077 0.13264096 -0.013883267 0.14981294 0.123302385 -0.124750875
0.07422958 0.1124512 0.091798924 0.040676508 -0.03799088 -0.039288264 0.0026034936 0.1083905
-0.108853936 -0.121176384 -0.10857192 -0.06453453 0.14673825 -0.12297658 0.044165846 0.014876664
-0.025559152 -0.09767494 0.10607238 -0.0970006 -0.039544202 0.14497708 -0.12246774 0.123834215
0.11891766 0.010593093 -0.116335906 -0.0116556445 -0.08896178 0.03286601 0.0386669 0.03718795
0.09425963 0.06309037 0.034123622 -0.0471615 0.09985924 -0.062126264 0.030193327 0.123050466
0.10628035 -0.060368914 0.07497082 0.008438007 0.06797357 -0.14098944 0.07104265 0.055452187
0.010040757 0.049633406 0.00057744706 0.137015 -0.08107309 -0.053357884 -0.019037541 -0.06597516
0.0043803696 -0.12746538 0.14289255 0.0056929346 0.039399456 -0.031689163 -0.06901911 -0.14984281
-0.0048744874 0.014064588 0.14121328 -0.071091615 0.062256347 -0.060082167 -0.022602424 0.071966715
-0.009020267 -0.08899336 0.07661174 -0.1352218 0.026595917 0.06018708 -0.01705905 -0.027682291
-0.09112604 -0.1271858 0.081590384 0.100234695 -0.09284236 -0.075092345 0.10153679 0.09021264
-0.12069204 0.09303964 0.031510748 -0.118955836 0.115242876 0.09756499 -0.11649121 0.13971017
0.056751788 -0.1095665 -0.06574255 -0.04567625 0.02907149 0.054974906 -0.04192524 0.027582126
-0.16120647 0.02327206 0.12868035 -0.13979568 0.1413626 0.12204353 0.038767118 0.120301865
0.0025510502 0.012835661 0.13865615 0.0018938207 -0.17925149 -0.13195002 0.025199888 0.080674924
-0.13121904 -0.08433108 0.0061578336 0.037893806 0.10781793 -0.032179393 -0.09162179 -0.007123015
0.09532237 -0.04377159 0.10967701 0.019676674 0.10904258 -0.1396824 0.07616826 -0.058436356
-0.08904103 -0.013679591 -0.099205986 0.08569253 0.03736066 0.1160184 -0.049958166 0.046786614
0.045508664 0.08473843 0.017154995 -0.12810253 -0.12828398 -0.068288036 -0.09889675 0.10046182
-0.02649556 0.039454143 0.024719715 -0.05653013 0.040658414 0.07700285 -0.02696525 -0.030979764
00000000: 6db9 b63c fe7c c73d caca 3f3d 8b76 2bbd
00000010: e174 3a3d 65ae 4fbd f68b a03c 52aa d1bd
00000020: 051c db3d 6c47 1abd 2ac4 e2bd 1d31 d7bd
00000030: edc3 f83d 8558 10be 10e9 f4ba 93c7 cbbd
00000040: 45c0 7a3d 8b74 31be 16f8 0b3e ca67 dcbd
00000050: a0bd be3d f133 5a3c c905 a1bc 05dd f13b
00000060: d58c d4bd aba9 0fbe ba00 f73d 994f 87bd
00000070: 40cb 823d 3e6f 8d3d e80f 5fbd e32c 26bb
00000080: edb0 31bd aba3 04be a935 063e ef9c 75bd
00000090: 9706 b13d 95db 5cbc 2908 0dbd 443d 59bc
000000a0: d3e0 ee3d d03c 9a3d ee27 c6bd e5b9 63bc
000000b0: c1f6 d23d 1b83 0f3e 1de9 4cbd 2e15 d33d
000000c0: a7a7 903d 1850 c23d 1eb1 e83d 8dc6 563d
000000d0: 41d4 a6bc 382b f43d 9009 953d 2089 4a3d
000000e0: 1ef3 aebc 7716 f0bb 7fc1 0cbe b209 92bd
000000f0: c15c e639 3717 eebd ead4 783d e5fc 683b
00000100: 3090 9c3b 653b 17bd 7f6c e7bd 5f1b 55bd
00000110: 4239 303d 5c98 bfbd 0fac f0bc d506 18be
00000120: c6cd 9d3d 15c0 4b3d da2d 87bd af81 d6bc
00000130: fabc a3ba c5cd abbd e24f cdbd 2365 a9bd
00000140: 9ca6 dd3d ac1e fabc 77ea 13bd 36d2 d83d
00000150: eecf a4bd 0bd0 dc3d 6198 933c bd40 c43d
00000160: 6605 173e 2133 febd 3d74 d23d 08d3 073e
00000170: a476 63bc 9068 193e f685 fc3d 637d ffbd
00000180: ae05 983d d14c e63d 1301 bc3d 699c 263d
00000190: 539c 1bbd bbec 20bd 609f 2a3b d7fb dd3d
000001a0: d0ee debd 532b f8bd f45a debd ae2a 84bd
000001b0: 8d42 163e 25db fbbd 3fe7 343d 40bd 733c
000001c0: 6d61 d1bc cd09 c8bd 7a3c d93d 40a8 c6bd
000001d0: 1af9 21bd df74 143e 5ed0 fabd cb9c fd3d
000001e0: 1a8b f33d a78e 2d3c 8541 eebd 51f7 3ebc
000001f0: 9831 b6bd 829e 063d 2f61 1e3d 6452 183d
00000200: 310b c13d 8635 813d 36c5 0b3d 6b2c 41bd
00000210: 0083 cc3d 1c78 7ebd ff57 f73c e201 fc3d
00000220: 83a9 d93d 6545 77bd 4d8a 993d 913f 0a3c
00000230: ba35 8b3d 895f 10be cf7e 913d d521 633d
00000240: fd81 243c 664c 4b3d d15f 173a a94d 0c3e
00000250: a609 a6bd cc8d 5abd 9ef4 9bbc fc1d 87bd
00000260: 3489 8f3b 4986 02be 6d52 123e cc8b ba3b
00000270: 5361 213d 7fcc 01bd e459 8dbd 6570 19be
00000280: 2aba 9fbb 286f 663c 379a 103e 7b98 91bd
00000290: 8300 7f3d b818 76bd b828 b9bc 4963 933d
000002a0: bec9 13bc 2742 b6bd 9ee6 9c3d 9577 0abe
000002b0: aedf d93c ba86 763d 6cbf 8bbc f9c5 e2bc
000002c0: 4aa0 babd ff3c 02be dc18 a73d d947 cd3d
000002d0: 2324 bebd 04ca 99bd 85f2 cf3d 68c1 b83d
000002e0: 632d f7bd 918b be3d 6a11 013d 1e9f f3bd
000002f0: 7504 ec3d 27d0 c73d f292 eebd 2f10 0f3e
00000300: 9074 683d 6764 e0bd 08a4 86bd 0517 3bbd
00000310: 5527 ee3c 5e2d 613d cdb9 2bbd e9f3 e13c
00000320: 4f13 25be 0ca5 be3c c8c4 033e 9926 0fbe
00000330: 5bc1 103e f5f1 f93d 45ca 1e3d d360 f63d
00000340: 852f 273b aa4c 523c e1fb 0d3e 143a f83a
00000350: b48d 37be e81d 07be ff6f ce3c e538 a53d
00000360: 495e 06be c6b5 acbd a7c7 c93b 8936 1b3d
00000370: a6cf dc3d 8ace 03bd 34a4 bbbd 2e68 e9bb
00000380: 6038 c33d d749 33bd 579e e03d fa30 a13c
00000390: b751 df3d e708 0fbe 1bfe 9b3d f65a 6fbd
000003a0: 255b b6bd 5d20 60bc 822c cbbd 917f af3d
000003b0: 7e07 193d 0e9b ed3d efa0 4cbd 52a3 3f3d
000003c0: 4b67 3a3d 588b ad3d a288 8c3c 4f2d 03be
000003d0: e05c 03be 99da 8bbd 618a cabd edbe cd3d
000003e0: 370d d9bc ab9a 213d 0081 ca3c 238c 67bd
000003f0: 7089 263d acb3 9d3d 3ae6 dcbc 46c9 fdbc

bias f4 [20]
-0.067989774 0.103850074 -0.06062405 -0.05696787 0.10924257 0.06687331 -0.12740628 -0.16758019
0.025601327 0.057270795 -0.06945461 0.11357526 -0.0012850025 -0.026280299 -0.06331585 0.12260627
0.09996056 -0.038734175 -0.058153216 -0.003604405
00000000: 393e 8bbd 59af d43d ed50 78bd 2457 69bd
00000010: 92ba df3d e0f4 883d cb76 02be 249a 2bbe
00000020: e0b9 d13c c894 6a3d 383e 8ebd 259a e83d
00000030: 876d a8ba c849 d7bc beab 81bd ff18 fb3d
00000040: 1fb8 cc3d baa7 1ebd 1132 6ebd e237 6cbb

weight f4 [30, 20, 1]
-0.14193876 -0.12283713 0.08054203 -0.24760987 0.061863534 0.058193833 0.24497515 -0.05807784
0.11938789 -0.18133783 -0.02764097 -0.16774996 0.1968874 0.14345536 0.13681914 0.19877361
0.034887884 0.028010974 0.055507455 0.041217834 -0.0008996688 -0.07093121 0.16082804 0.07097069
0.23353808 -0.09034866 -0.007874992 0.012136808 0.04993528 0.024263673 -0.27805743 0.10326369
0.15048908 0.14024161 -0.2126273 0.06820384 -0.11396558 0.083446726 -0.16148043 -0.22845337
0.18162729 0.04739782 -0.09896493 0.112100385 -0.0907075 0.13139024 -0.1559905 -0.1465466
-0.034901112 -0.16742705 -0.15652308 0.08070531 -0.0036814206 0.01275192 0.12451963 -0.1703159
0.024035858 0.20128636 -0.035418395 0.15323491 -0.08716793 0.08141296 -0.22726612 0.054538723
-0.1629252 -0.04325632 -0.16237094 0.14353783 -0.09777257 0.05148539 0.20733412 0.10355249
-0.1697768 0.14411867 0.06884466 -0.09786844 0.01463002 0.16423334 -0.06363033 0.07775994
-0.0981148 -0.10173651 -0.04851794 0.029366635 -0.007147229 0.0661548 0.23604491 -0.13148686
0.0866531 -0.06337226 -0.15828733 0.034394495 0.18200056 -0.07675229 0.118466355 0.09508993
-0.13362642 0.15170798 -0.16152121 -0.103240915 -0.09874557 0.07551259 0.021569636 0.06325072
-0.09706493 -0.09834766 0.12854248 0.047825806 0.036731765 -0.09772713 -0.049167734 -0.06307557
0.14235023 -0.04649661 -0.086296506 -0.18602178 -0.18051885 -0.1835939 -0.068411164 0.0972882
-0.1195276 -0.13854054 0.12881672 -0.08072269 0.13090886 -0.018973486 -0.084773615 0.09781337
-0.1764316 0.14065905 0.049361184 -0.1096187 -0.1600991 0.16321039 -0.09043317 0.04825573
-0.050107908 -0.14408319 -0.033054102 -0.24694176 0.07623994 -0.021760456 -0.15783948 0.091021076
0.039467454 -0.057838824 -0.007067666 -0.06433295 -0.033133652 -0.11119917 0.005024877 0.051892214
-0.14913361 -0.009655132 0.0922346 0.11197949 -0.06255376 0.033566773 -0.15812582 -0.0438153
-0.04893087 -0.16309956 -0.049972314 0.13033685 0.027787669 0.27500516 0.23259348 -0.103580154
-0.03650068 0.103425846 -0.103575334 -0.08192303 -0.079625726 0.109512895 -0.21352054 -0.102340534
-0.11551427 0.016471285 0.15941314 -0.049561735 0.10858705 -0.16184379 0.13496011 -0.12947246
0.12585461 -0.13876306 0.09662047 -0.03592447 0.11707322 0.18743053 0.02706157 -0.17768107
-0.18042389 0.11097306 -0.14297983 0.17342772 0.11345106 0.037095044 0.1260409 -0.24679872
-0.12296188 0.18244983 -0.07972327 -0.008932773 0.06407667 -0.03662427 -0.09284144 0.1721183
0.03619315 0.088384755 -0.1414952 -0.12156102 -0.06550448 -0.015585535 -0.017583515 -0.11602784
-0.018265367 -0.05594083 0.14679874 0.14712206 0.08137297 0.0077832136 -0.052186124 0.23620802
-0.068285204 -0.18959162 -0.17333156 -0.0032635268 -0.1518971 0.087464586 -0.12345421 0.16609275
0.057728484 -0.13626629 0.1307771 0.063297935 -0.12081915 0.00038194173 -0.14268774 0.090423696
0.13332832 -0.014609952 0.062424026 -0.041084968 0.0019144664 0.2819467 0.05385102 -0.12603192
-0.11453866 -0.0022132397 0.16127622 -0.004156454 0.16206801 0.1757385 -0.060799092 -0.1195953
00000000: 6558 11be 0992 fbbd 38f3 a43d 718d 7dbe
00000010: 9e64 7d3d a85c 6e3d c4da 7a3e 07e3 6dbd
00000020: a381 f43d a0b0 39be 516f e2bc a5c6 2bbe
00000030: da9c 493e f6e5 123e 511a 0c3e 4f8b 4b3e
00000040: 99e6 0e3d 4577 e53c c95b 633d 08d4 283d
00000050: c0d7 6bba 6244 91bd 1bb0 243e 1559 913d
00000060: 9b24 6f3e b808 b9bd 1c06 01bc 76d9 463c
00000070: f088 4c3d 9cc4 c63c 8b5d 8ebe ea7b d33d
00000080: cf19 1a3e 7f9b 0f3e f9ba 59be 74ae 8b3d
00000090: c966 e9bd 1ee6 aa3d 205b 25be aeef 69be
000000a0: 81fc 393e 3724 423d 20ae cabd e394 e53d
000000b0: dbc4 b9bd 2a8b 063e f9bb 1fbe 5010 16be
000000c0: 78f4 0ebd ff71 2bbe 9647 20be d348 a53d
000000d0: fd43 71bb 6eed 503c 2604 ff3d 4b67 2ebe
000000e0: d9e6 c43c 031e 4e3e e112 11bd 9de9 1c3e
000000f0: 1a85 b2bd d7bb a63d 73b8 68be ff63 5f3d
00000100: ddd5 26be 8a2d 31bd 9144 26be 95fb 123e
00000110: fc3c c8bd 58e2 523d 654f 543e 5413 d43d
00000120: f8d9 2dbe d893 133e 6efe 8c3d 406f c8bd
00000130: c0b2 6f3c c92c 283e 9e50 82bd 9a40 9f3d
00000140: 6af0 c8bd 3b5b d0bd bfba 46bd 4c92 f03c
00000150: 4d33 eabb 2b7c 873d c2b5 713e 7ea4 06be
00000160: 2e77 b13d 51c9 81bd 1316 22be 3ee1 0c3d
00000170: 5b5e 3a3e 4e30 9dbd 7d9e f23d 82be c23d
00000180: 5dd5 08be 5659 1b3e d165 25be f96f d3bd
00000190: 1e3b cabd 58a6 9a3d ceb2 b03c 9889 813d
000001a0: fac9 c6bd 7f6a c9bd a4a0 033e fee4 433d
000001b0: 0c74 163d 2925 c8bd 1b64 49bd c42d 81bd
000001c0: 42c4 113e 3b73 3ebd 39bc b0bd 7e7c 3ebe
000001d0: efd9 38be 0a00 3cbe 271b 8cbd 093f c73d
000001e0: e3ca f4bd 92dd 0dbe 88e8 033e f051 a5bd
000001f0: f90c 063e 496e 9bbc ca9d adbd 6052 c83d
00000200: 7caa 34be ed08 103e f42e 4a3d c57f e0bd
00000210: 05f1 23be a020 273e 0735 b9bd cda7 453d
00000220: f33d 4dbd 8b8a 13be bd63 07bd 4dde 7cbe
00000230: b023 9c3d fc42 b2bc aca0 21be 4269 ba3d
00000240: a0a8 213d 67e8 6cbd e197 e7bb fec0 83bd
00000250: 27b7 07bd 64bc e3bd b9a7 a43b ee8c 543d
00000260: 7bb6 18be 8f30 1ebc 7ee5 bc3d 8155 e53d
00000270: 301c 80bd 507d 093d bceb 21be ac77 33bd
00000280: bc6b 48bd 9203 27be c5af 4cbd 0677 053e
00000290: f7a2 e33c 7acd 8c3e fc2c 6e3e d521 d4bd
000002a0: bd81 15bd eed0 d33d 4e1f d4bd 43c7 a7bd
000002b0: d012 a3bd 4c48 e03d 21a5 5abe ea97 d1bd
000002c0: bf92 ecbd caee 863c 333d 233e 3f01 4bbd
000002d0: e362 de3d 61ba 25be fc32 0a3e 6e94 04be
000002e0: 08e0 003e e717 0ebe f4e0 c53d 8925 13bd
000002f0: 16c4 ef3d caed 3f3e 3ab0 dd3c 07f2 35be
00000300: 0ac1 38be d845 e33d 4e69 12be 0997 313e
00000310: 0859 e83d f9f0 173d de10 013e ceb8 7cbe
00000320: 70d3 fbbd 21d4 3a3e f445 a3bd c45a 12bc
00000330: a13a 833d 5503 16bd a723 bebd c83f 303e
00000340: 453f 143d 1103 b53d 1ee4 10be fcf4 f8bd
00000350: 3627 86bd 795a 7fbc 4e0b 90bc 01a0 edbd
00000360: 40a1 95bc 3622 65bd 6952 163e 2aa7 163e
00000370: dfa6 a63d 540a ff3b 1ec1 55bd 84e0 713e
00000380: 1dd9 8bbd 4e24 42be d47d 31be e5e0 55bb
00000390: ea8a 1bbe a220 b33d 90d5 fcbd 3814 2a3e
000003a0: b474 6c3d 6489 0bbe 6fea 053e 59a2 813d
000003b0: 0870 f7bd 5a3f c839 bc1c 12be 0f30 b93d
000003c0: 3887 083e 955e 6fbc 56b0 7f3d b648 28bd
000003d0: d5ee fa3a 515b 903e e392 5c3d 830e 01be
000003e0: 3f93 eabd 000c 11bb 9825 253e dd32 88bb
000003f0: 28f5 253e cbf4 333e 7808 79bd 61ee f4bd

bias f4 [30]
-0.16926482 0.05997007 -0.06478884 0.04148185 0.021066876 0.01472352 0.18755813 -0.03912326
0.08701107 0.10299127 -0.029316569 0.0020738007 0.07733644 -0.12694556 0.12681374 0.043559298
-0.08946616 -0.06721998 -0.093832456 -0.060347196 -0.07374316 0.11447084 0.1300972 0.04699012
-0.039432053 0.03158107 0.06980177 0.1629116 -0.02239611 -0.008111222
00000000: c253 2dbe 2da3 753d 03b0 84bd dfe8 293d
00000010: 7194 ac3c eb3a 713c 3d0f 403e b63f 20bd
00000020: dc32 b23d 16ed d23d 4d29 f0bc 9ae8 073b
00000030: 9162 9e3d 04fe 01be 76db 013e 3c6b 323d
00000040: 093a b7bd a1aa 89bd 3b2b c0bd 9f2e 77bd
00000050: a706 97bd b06f ea3d 3338 053e b678 403d
00000060: 8183 21bd 275b 013d 3bf4 8e3d 4cd2 263e
00000070: 0c78 b7bc eee4 04bc

weight f4 [1, 60]
-0.038953777 0.035601538 0.025727719 -0.022872064 -0.04648814 0.04292382 -0.014874715 0.024641959
0.022164878 -0.007425969 0.04138023 -0.0346926 -0.036840912 0.02635737 0.09725142 -0.09070555
-0.017445195 0.01227745 0.015299476 0.007915547 0.043222222 -0.03300637 -0.078781396 0.08366731
-0.03338936 0.03635604 -0.007055167 0.011684646 -0.0036343029 0.00195994 -0.055354066 0.049925677
0.015964491 -0.018520929 0.032002356 -0.03331152 0.0941408 -0.07809063 0.04176127 -0.031314407
-0.013368959 0.0048725405 0.01507787 -0.0026332187 0.095883615 -0.087847 0.05130521 -0.020321952
0.11020149 -0.08179881 0.06100712 -0.04295394 0.026343942 -0.028546203 -0.029574264 0.035689898
0.0024429811 0.012345021 -0.04221191 0.042373106
00000000: ff8d 1fbd ebd2 113d f0c2 d23c 325e bbbc
00000010: 596a 3ebd e3d0 2f3d 14b5 73bc efdd c93c
00000020: 1e93 b53c 8b55 f3bb 517e 293d d419 0ebd
00000030: 7fe6 16bd 69eb d73c c12b c73d d5c3 b9bd
00000040: 3ae9 8ebc 5c27 493c a7aa 7a3c 36b0 013c
00000050: c909 313d b031 07bd 2458 a1bd c459 ab3d
00000060: 48c3 08bd 12ea 143d 082f e7bb f570 3f3c
00000070: 7c2d 6ebb 5672 003b f2ba 62bd de7e 4c3d
00000080: f7c7 823c 34b9 97bc e714 033d a971 08bd
00000090: e4cc c03d fbed 9fbd de0d 2b3d 8943 00bd
000000a0: 7a09 5bbc d5a9 9f3b 2c09 773c 1492 2cbb
000000b0: a15e c43d 21e9 b3bd 6925 523d 397a a6bc
000000c0: 52b1 e13d 2286 a7bd 9ae2 793d 78f0 2fbd
000000d0: 40cf d73c bad9 e9bc ba45 f2bc 922f 123d
000000e0: 6c1a 203b c542 4a3c 65e6 2cbd 6c8f 2d3d
