1/第17课 使用深度学习模型CNN生成结构性因子/cnn_for_fct_curr.pth (torch, 9951 bytes, 5 tensors)

weight f4 [20, 41, 1]
0	0x3cb84281	0.022492649
1	0xbdea12c6	-0.11429362
2	0xbdf324b4	-0.11872235
3	0xbd586bf7	-0.05283734
4	0x3bf8e3e1	0.0075955247
5	0xbe02eaa7	-0.12784825
6	0x3de50dc5	0.11184267
7	0x3dabe81e	0.08393882
8	0x3e1a0520	0.15041018
9	0x3e3016f8	0.17196262
10	0xbcba2707	-0.022723688
11	0xbd8497d0	-0.064742684
12	0xbdc7eacf	-0.09761583
13	0x3e196db7	0.14983259
14	0xbdf05f74	-0.11736956
15	0xbe1359a0	-0.14389658
16	0xbd98d42e	-0.07462345
17	0x3d001173	0.03126664
18	0x3e030ab4	0.12797052
19	0xbd8410db	-0.064485274
20	0x3dc5a561	0.09650684
21	0xbc9f0853	-0.019413149
22	0x3dc2f840	0.09520006
23	0xbdc5843b	-0.096443616
24	0xb902a38a	-0.00012458689
25	0xbcf1736f	-0.029473988
26	0x3cd298b2	0.025707576
27	0xbcb2322d	-0.021752441
28	0x3df11f6b	0.117735706
29	0xbe0d7bac	-0.13816708
30	0xbd877dce	-0.06615792
31	0xbd226eea	-0.039656557
32	0xbd1b53dc	-0.03792177
33	0xbccf85b0	-0.025332302
34	0x3d196368	0.037448317
35	0xbdcbc135	-0.09948961
36	0xbd465fcb	-0.0484312
37	0xbd61de79	-0.055143807
38	0xbd7e2acf	-0.062052544
39	0xbda0c4de	-0.078500494
40	0x3d12986d	0.035789896
41	0xbe146dbd	-0.14494987
42	0x3d197038	0.037460536
43	0x3b80fa95	0.0039361217
44	0x3df4b366	0.1194828
45	0xbcf33791	-0.029689582
46	0xbde1b5d0	-0.11021006
47	0xbdbc172e	-0.09184109
48	0xbdc16d93	-0.09444728
49	0xbe15e4dc	-0.14638084
50	0x3dfb20c6	0.122621104
51	0xbdaef84b	-0.08543452
52	0x3c72f26d	0.014828307
53	0xbe290a73	-0.16507892
54	0xbdfdbbe0	-0.1238935
55	0x3cd950cc	0.026527785
56	0xbe1226bf	-0.14272593
57	0x3d303cae	0.04302662
58	0x3c8140be	0.015777942
59	0x3dfc2831	0.123123534
60	0x3d24410e	0.040101103
61	0x3dbbd268	0.09170991
62	0x3df2b8b3	0.11851635
63	0x3dea7150	0.11447394
64	0xbdd155ee	-0.10221468
65	0x3d1c2ce4	0.03812875
66	0x3d5bc7ef	0.05365747
67	0xbe1a41e7	-0.15064202
68	0x3cb9ceba	0.022681583
69	0xbd04aaae	-0.032389335
70	0xbce07c6f	-0.027403085
71	0x3d39e548	0.045384675
72	0x3cbe705f	0.023246942
73	0xbd264863	-0.040596377
74	0x3ddb7a98	0.10716742
75	0x3e03e001	0.1287842
76	0x3d4219e6	0.04738798
77	0x3c8c31d8	0.017113611
78	0x3e0b007b	0.13574402
79	0x3dd49b88	0.10381228
80	0xbe209671	-0.15682389
81	0x3cf7d6de	0.030253824
82	0x3da3bb6d	0.07994733
83	0x3c9e1076	0.019294959
84	0x3c97a9ee	0.018513646
85	0x3e165e58	0.14684427
86	0xbde9379f	-0.11387562
87	0xbd2513e5	-0.040302176
88	0xbd2f5023	-0.042801034
89	0xbc684e45	-0.014178817
90	0x3d959e67	0.073056035
91	0xbc946934	-0.018116571
92	0xbcc16db1	-0.023611875
93	0x3db4c74d	0.08827076
94	0x3dd84592	0.105601445
95	0x3d3217af	0.043479618
96	0x3c9da3c8	0.019243136
97	0xbdf3eb04	-0.1191006
98	0x3d4066da	0.046973087
99	0x3d20a5c9	0.039220605
100	0x3d9a629b	0.07538339
101	0xbd6326a7	-0.055456784
102	0xbd941a4a	-0.07231577
103	0x3d94eb01	0.07271386
104	0xbd6033e5	-0.05473699
105	0x3cf3b182	0.029747728
106	0x3d13eb45	0.036113042
107	0x3b55c0f8	0.003261624
108	0xbdfc9a7c	-0.12334153
109	0x3c198441	0.009369911
110	0x3ca86f6e	0.020560946
111	0xbde35367	-0.11099892
112	0x3d2d5359	0.042315815
113	0x3ce30607	0.027712835
114	0x3d0367e4	0.0320815
115	0xbdf439e5	-0.11925105
116	0x3da3eb19	0.08003826
117	0x3d40068b	0.04688124
118	0x3e081d6e	0.13292477
119	0x3e124612	0.14284542
120	0xbdaf5d6f	-0.08562743
121	0xbddc931e	-0.10770248
122	0x3b432a53	0.0029779866
123	0xbd67fe4b	-0.056638997
124	0xbda99847	-0.08280998
125	0xbc19a01c	-0.009376552
126	0xbdb6b4a7	-0.089211755
127	0x3ca0500c	0.01956942
128	0x3e028aea	0.12748304
129	0xbddb6d20	-0.10714173
130	0xbdc27a30	-0.09495962
131	0x3e1b47b2	0.15164068
132	0x3db7b5ad	0.08970199
133	0x3dfbc1fe	0.122928604
134	0xbd89a036	-0.06720011
135	0xbdc9d010	-0.09854138
136	0xbdb50212	-0.088382855
137	0x3da7d885	0.08195595
138	0x3dbff245	0.09372381
139	0x3d7aef08	0.061263114
140	0x3d1dccd6	0.038525425
141	0x3c68f37f	0.01421821
142	0x3d833701	0.064069755
143	0x3c9000a2	0.017578427
144	0x3e0c38a3	0.1369348
145	0xbd319bea	-0.04336158
146	0x3d36b4b2	0.04460592
147	0x3dd298f7	0.10283082
148	0x3d207265	0.039171595
149	0x3d278e8e	0.040907435
150	0xbdb08da1	-0.086207636
151	0x3da99891	0.08281053
152	0xbc627aa1	-0.013823182
153	0x3de8e0d3	0.11371007
154	0x3e023a0e	0.12717459
155	0xbcc0e423	-0.023546284
156	0xbd41fd98	-0.047360986
157	0xbd82d7dc	-0.06388828
158	0xbcde212d	-0.027115429
159	0x3d689a4d	0.056787778
160	0x3d6b7cc6	0.05749204
161	0xbd985a0b	-0.07439049
162	0x3dc92307	0.09821134
163	0x3e15900a	0.14605728
164	0xbe1a27ac	-0.15054196
165	0x3dddfe8c	0.108395666
166	0xbd26cba7	-0.04072156
167	0x3de1ad57	0.1101939
168	0xbd4377e4	-0.04772176
169	0x3ca9a769	0.02070971
170	0x3e0b12a1	0.13581325
171	0xbdc75d69	-0.097346134
172	0x3da60a8a	0.08107479
173	0xbd9f5217	-0.07779329
174	0xbdf9a135	-0.12188951
175	0x3e15e98a	0.1463987
176	0xbcbf25ba	-0.02333342
177	0x3d9a26d6	0.075269386
178	0xbd548840	-0.05188775
179	0xbc93b08d	-0.018028522
180	0x3cc7d968	0.02439566
181	0x3e1fcf93	0.15606527
182	0x3de12240	0.10992861
183	0x3b10fe32	0.0022124168
184	0xbd8c2e48	-0.06844765
185	0xbdc6de6d	-0.09710393
186	0x3e18e2c3	0.14930253
187	0xbd2ee938	-0.042702883
188	0xbdf9e37e	-0.12201594
189	0x3e04625b	0.12928145
190	0xbde840b6	-0.11340468
191	0x3bf84368	0.007576395
192	0x3ca4a09c	0.020096116
193	0x3d9b815d	0.075930335
194	0x3d68daa1	0.056849126
195	0xbd8d0511	-0.06885732
196	0xbcc9c157	-0.024628324
197	0x3d9c20d2	0.076234475
198	0x3daedb9a	0.085379794
199	0x3d67bc1a	0.056575872
200	0x3bf8d6e7	0.0075939777
201	0x3ba22a4c	0.00494889
202	0xbc81d43a	-0.015848268
203	0x3de493c0	0.111609936
204	0x3e16e8ec	0.1473729
205	0x3d27d575	0.040975053
206	0xbce2509c	-0.027626328
207	0x3dd0723a	0.10178037
208	0xbdad83f6	-0.08472435
209	0x3de112a8	0.109898865
210	0xbdab58ce	-0.083665475
211	0xbde317fa	-0.110885575
212	0x3d328cc1	0.043591265
213	0x3c693bf0	0.014235482
214	0xbd4c5ebd	-0.049895037
215	0x3c7d17d0	0.015447572
216	0x3e06728c	0.13129634
217	0x3e0df225	0.13861902
218	0xbc3bab6b	-0.011454443
219	0xbdde01ea	-0.10840209
220	0xbcda85cd	-0.02667513
221	0x3dcf6968	0.101275265
222	0x3e0c7490	0.1371634
223	0x3d074040	0.033020258
224	0x3ddaf9d4	0.10692182
225	0xbd6a61ce	-0.05722218
226	0x3a5637a6	0.00081717444
227	0x3de6d97c	0.112719506
228	0x3d714a69	0.058908854
229	0xbdd728de	-0.10505842
230	0x3db98ef2	0.09060468
231	0x3c7f0948	0.015566178
232	0xbdb94b0b	-0.090475164
233	0xbd256fa8	-0.040389687
234	0xbd9dccaf	-0.07705056
235	0x3da0e9db	0.078571044
236	0x3d8f290f	0.06990253
237	0x3d9b227b	0.07574936
238	0xbe19033c	-0.1494264
239	0xbceceda5	-0.028921911
240	0x3dada3fe	0.08478545
241	0xbd9b0ef2	-0.0757121
242	0xbd8dfbcc	-0.06932792
243	0xbcd222b6	-0.025651317
244	0xbda24046	-0.079224154
245	0x3ac36544	0.0014907499
246	0xbdb13b81	-0.086539276
247	0xbe17d451	-0.14827086
248	0xbe057d8f	-0.13036178
249	0x3ddea3e1	0.10871101
250	0xbe0f0165	-0.13965376
251	0xbd87e55c	-0.06635544
252	0x3d7583e1	0.059940223
253	0x3e240a45	0.16019543
254	0x3e1ede9a	0.15514603
255	0x3e3954c5	0.18098743

bias f4 [20]
0	0x3d44e36d	0.048068453
1	0xbd1328c5	-0.035927553
2	0x3dbbbcd0	0.091668725
3	0xbcd47cf1	-0.025938483
4	0x3d88c368	0.06677896
5	0x3d836778	0.064162195
6	0x3cf0487e	0.029331442
7	0xbe0403c0	-0.12892056
8	0xbd9d8489	-0.07691295
9	0x3dc4c2b3	0.096074484
10	0x3da8c838	0.08241314
11	0x3daffe14	0.085933834
12	0xbcece1d2	-0.028916273
13	0x3d19f2fc	0.037585244
14	0x3d95f9f6	0.07323067
15	0xbe143313	-0.14472608
16	0x3dbd26bb	0.09235903
17	0x3d755772	0.059897847
18	0xbd305368	-0.043048292
19	0x3d99c051	0.075073846

weight f4 [30, 20, 1]
0	0xbc89d214	-0.016823806
1	0xbd89bbcc	-0.067252725
2	0x3dcdac10	0.10042584
3	0x3e4d60ce	0.2005646
4	0x3db80b12	0.089864865
5	0xbd5b7164	-0.053574935
6	0xbc8274d8	-0.015924856
7	0xbe6f8e55	-0.23394139
8	0x3df55d01	0.1198063
9	0x3d726e2d	0.059187103
10	0xbe299819	-0.16561927
11	0xbe3892d6	-0.18024763
12	0x3deb3e73	0.114865206
13	0x3bf76270	0.0075495765
14	0x3e4dcb62	0.20097116
15	0x3d7c469d	0.06159078
16	0xbdba3b81	-0.09093381
17	0x3dab321b	0.08359166
18	0x3e141e8f	0.14464782
19	0x3e47b9ea	0.19504514
20	0xbdc2517c	-0.09488198
21	0xbd05eb76	-0.032695256
22	0xbd37724f	-0.044786748
23	0x3d9a6bbd	0.07540081
24	0xbd851594	-0.06498256
25	0xbe3194eb	-0.17341964
26	0xbe004c96	-0.12529215
27	0xbdb186d2	-0.08668293
28	0xbc860154	-0.016358055
29	0xbdd3e21c	-0.10345861
30	0xbd1bf096	-0.038071238
31	0xbdd50fdb	-0.10403415
32	0x3e1a9792	0.15096882
33	0x3e184248	0.14869034
34	0x3ddeb18c	0.10873708
35	0x3e2ec5ee	0.17067692
36	0x3df22107	0.11822706
37	0x3e30cc7f	0.17265509
38	0xbe03456e	-0.12819454
39	0xbdc34d1d	-0.095361926
40	0xbe64c5e8	-0.2234112
41	0x3e43ec01	0.19132997
42	0xbe111907	-0.14169703
43	0xbdea2087	-0.11431985
44	0x3d653f1e	0.055968396
45	0x3e87d683	0.26530847
46	0xbda420aa	-0.08014043
47	0x3dc47252	0.09592117
48	0x3e62d2d4	0.22150737
49	0xbe2d624a	-0.16932026
50	0xbdd52c1e	-0.10408805
51	0x3de0d79a	0.10978623
52	0x3e0a9686	0.13533983
53	0x3e4d2d11	0.20036723
54	0xbe167eaf	-0.14696763
55	0xbdc40348	-0.09570938
56	0xbe18fa54	-0.14939243
57	0x3da6bd3c	0.08141562
58	0xbe340df9	-0.17583455
59	0x3c57f673	0.013181317
60	0xbe50553e	-0.20345017
61	0x3e1ce77e	0.15322682
62	0x3d02784f	0.031853016
63	0x3e259b5c	0.16172546
64	0x3cb208af	0.021732656
65	0xbd116afb	-0.035502415
66	0x3d7df4e4	0.062001124
67	0xbc864a7b	-0.016392937
68	0x3d34c0e8	0.044129282
69	0x3dc0988a	0.094040945
70	0x3cdd0318	0.026979014
71	0xbe1fb601	-0.15596773
72	0xbe35765e	-0.17720935
73	0xbe001d77	-0.1251124
74	0xbe6496db	-0.22323172
75	0x3d6a6b1e	0.05723106
76	0xbd6abff3	-0.057311963
77	0x3d8a2c8d	0.06746779
78	0xbdb7aaca	-0.08968122
79	0xbd8e96ec	-0.0696238
80	0x3d7821ce	0.060579114
81	0x3bcb7414	0.006208906
82	0xbe34b8c1	-0.17648603
83	0x3e0eb3e1	0.13935806
84	0xbde7506e	-0.112946376
85	0xbd190579	-0.037358735
86	0x3c9f1451	0.019418867
87	0xbe649669	-0.22323002
88	0xbe0a0488	-0.13478291
89	0x3e2c881c	0.16848797
90	0xbe0a43f0	-0.13502479
91	0xbdb4c1f4	-0.08826056
92	0xbe625986	-0.22104463
93	0x3e316185	0.17322357
94	0x3d76043d	0.060062636
95	0xbbf58073	-0.007492119
96	0xbe61ab45	-0.2203799
97	0xbcd4ddfd	-0.025984759
98	0xbdecbb5b	-0.11559173
99	0x3e1e96d7	0.15487228
100	0x3e1e9846	0.15487775
101	0x3d057a51	0.032587353
102	0x3e1dbcdd	0.15404077
103	0xbe16a9d8	-0.14713228
104	0xbddf5dd2	-0.10906567
105	0xbda48705	-0.080335654
106	0x3db46f54	0.08810297
107	0x3d9d1c8b	0.0767146
108	0xbe525917	-0.20541798
109	0xbdb4c2f7	-0.08826249
110	0xbd4137d9	-0.0471724
111	0xbccc3b02	-0.02493048
112	0xbd67c466	-0.056583785
113	0xbe017828	-0.12643492
114	0xbe3b73d0	-0.18305898
115	0xbe327fe4	-0.17431599
116	0x3e5b3668	0.21407473
117	0xbe2d869c	-0.1694588
118	0xbd57929f	-0.052630063
119	0x3defdcc9	0.11712033
120	0x3e196c43	0.14982705
121	0x3e6c2db8	0.23064315
122	0x3e4da47d	0.20082279
123	0xbcea437c	-0.028596632
124	0xbdac94bd	-0.08426807
125	0xbd2ab2c0	-0.041674376
126	0xbcece61c	-0.028918318
127	0x3db7dd15	0.08977715
128	0x3e0d9293	0.13825445
129	0x3e1e5d8b	0.15465371
130	0xbe2eefa3	-0.17083602
131	0x3e07438a	0.13209358
132	0xbdd16d8f	-0.10225975
133	0xbde11246	-0.109898135
134	0xbc948864	-0.018131442
135	0x3d5b7768	0.05358067
136	0xbcd0de0a	-0.025496501
137	0xbd07362e	-0.033010654
138	0x3e267d77	0.16258799
139	0xbdaf6138	-0.08563465
140	0xbe4272ff	-0.1898918
141	0x3dcc876c	0.09986767
142	0xbe531b17	-0.20615803
143	0xbd95681b	-0.07295247
144	0xbd275615	-0.04085358
145	0x3d7b78f5	0.06139465
146	0x3d57fd36	0.052731715
147	0x3db89bfe	0.09014128
148	0xbe3b3df3	-0.1828535
149	0x3da33b8a	0.079703405
150	0xbd89e063	-0.067322515
151	0xbd2bbddf	-0.041929122
152	0xbe2a75c0	-0.1664648
153	0x3e18c9ec	0.14920777
154	0x3dc37c7c	0.09545228
155	0x3e6a13f3	0.22859173
156	0xbe2588e6	-0.16165504
157	0x3e29330d	0.1652338
158	0x3e2ebb78	0.17063701
159	0xbe098ae6	-0.13431892
160	0xbda3d740	-0.0800004
161	0x3e1a7853	0.15084963
162	0x3e182042	0.14856055
163	0x3e3a8507	0.18214808
164	0x3e2c2079	0.16809262
165	0xbd3fd0ff	-0.046830174
166	0x3e1c99f4	0.15293103
167	0x3e4fb701	0.20284654
168	0xbdbaf02e	-0.09127842
169	0x3d7c356c	0.061574385
170	0x3e1ff920	0.15622377
171	0x3dacb860	0.08433604
172	0x3e24e7a8	0.16103995
173	0x3e42b34a	0.19013706
174	0xbd964071	-0.0733651
175	0x3df72e95	0.12069432
176	0x3d392213	0.04519851
177	0x3dc57406	0.0964127
178	0x3b438697	0.002983486
179	0xbe238853	-0.15969972
180	0xbe276738	-0.16347969
181	0x3e25e819	0.1620182
182	0x3d317aca	0.04332999
183	0x3dcee09e	0.10101436
184	0x3ca439a4	0.020047016
185	0xbe27119c	-0.16315311
186	0xbe1f42a4	-0.15552765
187	0x3d8a7ef9	0.06762499
188	0xbe05c723	-0.13064246
189	0x3e13a955	0.14420064
190	0xbe2367ea	-0.15957609
191	0xbd242132	-0.04007072
192	0x3c73fe28	0.014892139
193	0xbd020ccf	-0.031750496
194	0xbd053f74	-0.032531217
195	0x3ca8fb97	0.02062778
196	0x3e2ec728	0.1706816
197	0xbe23f0e6	-0.16009864
198	0x3da047e4	0.07826212
199	0x3d940dd6	0.072292015
200	0x3c051c71	0.008124457
201	0xbd99c0cf	-0.075074784
202	0xbe18f270	-0.14936233
203	0xbd04349b	-0.03227673
204	0x3e469e4a	0.1939632
205	0xbcc66aec	-0.024220906
206	0xbe1474f5	-0.1449774
207	0x3e425578	0.18977916
208	0xbe5204f6	-0.20509705
209	0x3d83bb8f	0.06432258
210	0xbe0fc356	-0.14039358
211	0xbd5a1a3e	-0.053247683
212	0x3e60bbef	0.21946691
213	0x3e328683	0.17434125
214	0x3e28de1d	0.1649098
215	0xbdb7b2af	-0.08969628
216	0xbe138972	-0.144079
217	0xbda0d6ff	-0.07853507
218	0x3e738eb6	0.23784909
219	0x3e42039d	0.18946691
220	0x3d527c19	0.05138788
221	0x3db004ad	0.08594642
222	0xbdfe3470	-0.124123454
223	0xbe0f7fd1	-0.14013602
224	0xbbbefa3c	-0.00582817
225	0x3d09bb8a	0.033626117
226	0xbdcfb277	-0.10141461
227	0xbde2b13f	-0.11068963
228	0x3dce0f35	0.10061494
229	0x3dc1d289	0.094639845
230	0x3e1df14d	0.1542408
231	0xbd49c7b9	-0.049262736
232	0x3db09437	0.0862202
233	0x3d81dd29	0.06341011
234	0x3e47ff3d	0.1953096
235	0xbd99a4f0	-0.075021625
236	0x3e57097d	0.20999713
237	0x3e2dbd1f	0.16966675
238	0x3e507bc1	0.20359708
239	0x3e01d611	0.12679316
240	0x3dc367fd	0.095413186
241	0x3e3e6bc3	0.18595795
242	0xbddd96f1	-0.108198054
243	0x3e16ae48	0.1471492
244	0xbe083990	-0.13303208
245	0x3da68f4f	0.08132803
246	0x3df60b43	0.12013867
247	0x3e2c96b8	0.1685437
248	0xbe2a46bb	-0.16628544
249	0xbd3b2b0f	-0.04569536
250	0x3c47a4bf	0.012185275
251	0x3dc946e0	0.098279715
252	0xbe808280	-0.25099564
253	0x3d8dba87	0.06920343
254	0x3e27ffd8	0.1640619
255	0xbe0b771e	-0.13619658

bias f4 [30]
0	0x3df6ae99	0.120450206
1	0xbde5dfb5	-0.11224309
2	0xbe0bc4c5	-0.1364928
3	0x3db36203	0.087589286
4	0x3e40adef	0.1881635
5	0x3d4dc20b	0.050233882
6	0xbe474b3c	-0.19462293
7	0xbe65658f	-0.22402023
8	0xbe501b8a	-0.20323005
9	0xbe5f6196	-0.2181457
10	0x3da44f2f	0.080229156
11	0x3e627d18	0.22118032
12	0x3e027b29	0.12742294
13	0xbde9b82d	-0.11412082
14	0x3c7617a2	0.015020283
15	0x3dab211e	0.08355926
16	0xbe20a4e4	-0.15687901
17	0x3e3fcd76	0.18730721
18	0x3e1316c8	0.14364159
19	0xbe32688b	-0.17422692
20	0xbe3cd81f	-0.18441819
21	0x3e1dbb5b	0.15403502
22	0x3db1861e	0.08668159
23	0x3c10c3b1	0.008835719
24	0x3d08f13a	0.033433177
25	0xbe0eaf6c	-0.13934106
26	0x3e2385eb	0.15969054
27	0x3da97eaa	0.082761124
28	0xbe4992a1	-0.1968484
29	0x3e2b5a78	0.1673373

weight f4 [1, 60]
0	0x3dd42a2e	0.10359608
1	0xbc6fe4d9	-0.014641964
2	0xbd7b60bb	-0.061371546
3	0xbd989063	-0.074494146
4	0x3827efc6	4.003921e-05
5	0x3c9a2db2	0.018820617
6	0xbd9d0ae1	-0.076680906
7	0xbda8ae27	-0.08236342
8	0xbd78ee5c	-0.060774192
9	0x3db0ed9b	0.0863907
10	0x3c90b2dc	0.017663412
11	0x3d97e13e	0.074160084
12	0x3d5f595e	0.054528587
13	0xbdeeaec8	-0.11654431
14	0x3de0c106	0.10974316
15	0xbc0318a0	-0.0080014765
16	0x3d5e24ac	0.05423419
17	0x3d89f606	0.06736378
18	0x3d8941a6	0.067019746
19	0x3d8b7db7	0.068110876
20	0xbd0acd77	-0.033887353
21	0x3bc6c048	0.006065402
22	0xbd9ce63e	-0.07661103
23	0xbd73e469	-0.059544
24	0x3d37deb2	0.044890113
25	0xbcbbcaf8	-0.022923931
26	0x3d15e130	0.03659171
27	0xbd87ce3c	-0.06631133
28	0xbd27ae1b	-0.040937524
29	0xbd44e944	-0.048074022
30	0x3d00f694	0.031485155
31	0x3dbb89ee	0.091571674
32	0x3d72e74c	0.059302613
33	0xbdbdfc47	-0.09276634
34	0x3d9457ae	0.07243286
35	0xbe032451	-0.12806822
36	0xbc98ea62	-0.01866645
37	0xbdc7854b	-0.097422205
38	0xbb2284ee	-0.002479847
39	0xbba2fc8d	-0.004973954
40	0xbd2b0d69	-0.041760836
41	0xbc1f51e7	-0.009724117
42	0x3da29da2	0.07940222
43	0xbd80928c	-0.062779516
44	0x3d7b5d9f	0.06136858
45	0xbd3bdbad	-0.045863796
46	0xbdc4f45d	-0.09616921
47	0x3ca6dd04	0.02036906
48	0xbbe12147	-0.006870422
49	0xbdb29b11	-0.08720983
50	0xbd76034f	-0.06006175
51	0x3e0870c5	0.13324268
52	0x3bcf0d92	0.0063187564
53	0xbdabc13a	-0.083864644
54	0x3d1a356b	0.0376486
55	0xbc64c9c8	-0.013964124
56	0x3d124d09	0.035717998
57	0xbd0d9d3c	-0.03457378
58	0xbd050a50	-0.032480538
59	0xbd4ca0cf	-0.049958047
